…
2022-08-15 00:44:23.657490: I tensorflow/core/platform/cpu_feature_guard.cc:151] This TensorFlow binary is optimized with oneAPI Deep Neural Network Library (oneDNN) to use the following CPU instructions in performance-critical operations:  AVX2 AVX512F FMA
To enable them in other operations, rebuild TensorFlow with the appropriate compiler flags.
Reading prev_orders_market_id...
Time passed: 0.13176989555358887 secs
Reading prev_orders_store_id...
Time passed: 0.12443852424621582 secs
--- training dataset contains 143743 elements ---
--- validation dataset contains 35936 elements ---
Model: "sequential"
_________________________________________________________________
 Layer (type)                Output Shape              Param #   
=================================================================
 dense (Dense)               (None, 1, 16)             224       
                                                                 
 dropout (Dropout)           (None, 1, 16)             0         
                                                                 
 dense_1 (Dense)             (None, 1, 32)             544       
                                                                 
 dropout_1 (Dropout)         (None, 1, 32)             0         
                                                                 
 dense_2 (Dense)             (None, 1, 64)             2112      
                                                                 
 dropout_2 (Dropout)         (None, 1, 64)             0         
                                                                 
 flatten (Flatten)           (None, 64)                0         
                                                                 
 dense_3 (Dense)             (None, 1)                 65        
                                                                 
=================================================================
Total params: 2,945
Trainable params: 2,945
Non-trainable params: 0
_________________________________________________________________

Epoch 1/15

Training mean_absolute_error: 243535.25
Validation loss: 819.4406127929688
Validation mean_absolute_error: 819.4406127929688
…
Kfold average mae: 847.145020 
-------------------------------
New job directory is ../../doordash/prediction/cache/train_2/7
Reading prev_orders_market_id...
Time passed: 0.12342166900634766 secs
Reading prev_orders_store_id...
Time passed: 0.11584973335266113 secs
--- training dataset contains 143743 elements ---
--- validation dataset contains 35936 elements ---
Model: "sequential_1"
_________________________________________________________________
 Layer (type)                Output Shape              Param #   
=================================================================
 dense_4 (Dense)             (None, 1, 16)             224       
                                                                 
 dropout_3 (Dropout)         (None, 1, 16)             0         
                                                                 
 dense_5 (Dense)             (None, 1, 32)             544       
                                                                 
 dropout_4 (Dropout)         (None, 1, 32)             0         
                                                                 
 dense_6 (Dense)             (None, 1, 64)             2112      
                                                                 
 dropout_5 (Dropout)         (None, 1, 64)             0         
                                                                 
 dense_7 (Dense)             (None, 1, 128)            8320      
                                                                 
 dropout_6 (Dropout)         (None, 1, 128)            0         
                                                                 
 dense_8 (Dense)             (None, 1, 256)            33024     
                                                                 
 dropout_7 (Dropout)         (None, 1, 256)            0         
                                                                 
 dense_9 (Dense)             (None, 1, 512)            131584    
                                                                 
 dropout_8 (Dropout)         (None, 1, 512)            0         
                                                                 
 flatten_1 (Flatten)         (None, 512)               0         
                                                                 
 dense_10 (Dense)            (None, 1)                 513       
                                                                 
=================================================================
Total params: 176,321
Trainable params: 176,321
Non-trainable params: 0
_________________________________________________________________

Epoch 1/15

Training mean_absolute_error: nan
Validation loss: nan
Validation mean_absolute_error: nan
Time taken for epoch: 40.02s
…
