…
Time passed: 0.028605937957763672 secs
8 features have been added: ['created_at_week_day', 'created_at_hour', 'created_at_month', 'created_at_day_of_month', 'prev_orders_count_by_market_id', 'prev_orders_avg_by_market_id', 'prev_orders_count_by_store_id', 'prev_orders_avg_by_store_id']
--- training dataset contains 143743 elements ---
--- validation dataset contains 35936 elements ---
Model: "sequential"
_________________________________________________________________
 Layer (type)                Output Shape              Param #   
=================================================================
 dense (Dense)               (None, 1, 256)            4096      
                                                                 
 dropout (Dropout)           (None, 1, 256)            0         
                                                                 
 dense_1 (Dense)             (None, 1, 128)            32896     
                                                                 
 dropout_1 (Dropout)         (None, 1, 128)            0         
                                                                 
 dense_2 (Dense)             (None, 1, 64)             8256      
                                                                 
 dropout_2 (Dropout)         (None, 1, 64)             0         
                                                                 
 flatten (Flatten)           (None, 64)                0         
                                                                 
 dense_3 (Dense)             (None, 1)                 65        
                                                                 
=================================================================
Total params: 45,313
Trainable params: 45,313
Non-trainable params: 0
_________________________________________________________________

Epoch 1/200

Training mean_absolute_error: 1165.1190185546875
Validation loss: 804.1422119140625
Validation mean_absolute_error: 804.1422119140625
…
