…
Time passed: 0.03187823295593262 secs
8 features have been added: ['created_at_week_day', 'created_at_hour', 'created_at_month', 'created_at_day_of_month', 'prev_orders_count_by_market_id', 'prev_orders_avg_by_market_id', 'prev_orders_count_by_store_id', 'prev_orders_avg_by_store_id']
--- training dataset contains 143743 elements ---
--- validation dataset contains 35936 elements ---
Model: "sequential"
_________________________________________________________________
 Layer (type)                Output Shape              Param #
=================================================================
 dense (Dense)               (None, 1, 512)            8192

 dropout (Dropout)           (None, 1, 512)            0

 dense_1 (Dense)             (None, 1, 256)            131328

 dropout_1 (Dropout)         (None, 1, 256)            0

 dense_2 (Dense)             (None, 1, 128)            32896

 dropout_2 (Dropout)         (None, 1, 128)            0

 flatten (Flatten)           (None, 128)               0

 dense_3 (Dense)             (None, 1)                 129

=================================================================
Total params: 172,545
Trainable params: 172,545
Non-trainable params: 0
_________________________________________________________________

Epoch 1/200

Training mean_absolute_error: 1975.597412109375
Validation loss: 879.9845581054688
Validation mean_absolute_error: 836.757080078125
Time taken for epoch: 7.42s

Epoch 2/200

Training mean_absolute_error: 818.0509033203125
…
