…
2022-08-15 02:31:39.141323: I tensorflow/core/platform/cpu_feature_guard.cc:151] This TensorFlow binary is optimized with oneAPI Deep Neural Network Library (oneDNN) to use the following CPU instructions in performance-critical operations:  AVX2 AVX512F FMA
To enable them in other operations, rebuild TensorFlow with the appropriate compiler flags.
Reading prev_orders_market_id...
Time passed: 0.14290189743041992 secs
Reading prev_orders_store_id...
Time passed: 0.13292455673217773 secs
--- training dataset contains 143743 elements ---
--- validation dataset contains 35936 elements ---
Model: "sequential"
_________________________________________________________________
 Layer (type)                Output Shape              Param #   
=================================================================
 dense (Dense)               (None, 1, 16)             224       
                                                                 
 dropout (Dropout)           (None, 1, 16)             0         
                                                                 
 dense_1 (Dense)             (None, 1, 32)             544       
                                                                 
 dropout_1 (Dropout)         (None, 1, 32)             0         
                                                                 
 dense_2 (Dense)             (None, 1, 64)             2112      
                                                                 
 dropout_2 (Dropout)         (None, 1, 64)             0         
                                                                 
 flatten (Flatten)           (None, 64)                0         
                                                                 
 dense_3 (Dense)             (None, 1)                 65        
                                                                 
=================================================================
Total params: 2,945
Trainable params: 2,945
Non-trainable params: 0
_________________________________________________________________

Epoch 1/15

Training mean_absolute_error: 2449.50146484375
Validation loss: 2864.17333984375
Validation mean_absolute_error: 2864.17333984375
…
