…
2022-08-16 19:48:42.825198: I tensorflow/core/platform/cpu_feature_guard.cc:151] This TensorFlow binary is optimized with oneAPI Deep Neural Network Library (oneDNN) to use the following CPU instructions in performance-critical operations:  AVX2 AVX512F FMA
To enable them in other operations, rebuild TensorFlow with the appropriate compiler flags.
--- training dataset contains 143743 elements ---
--- validation dataset contains 35936 elements ---
Model: "sequential"
_________________________________________________________________
 Layer (type)                Output Shape              Param #   
=================================================================
 dense (Dense)               (None, 1, 512)            8192      
                                                                 
 dropout (Dropout)           (None, 1, 512)            0         
                                                                 
 dense_1 (Dense)             (None, 1, 256)            131328    
                                                                 
 dropout_1 (Dropout)         (None, 1, 256)            0         
                                                                 
 dense_2 (Dense)             (None, 1, 128)            32896     
                                                                 
 dropout_2 (Dropout)         (None, 1, 128)            0         
                                                                 
 flatten (Flatten)           (None, 128)               0         
                                                                 
 dense_3 (Dense)             (None, 1)                 129       
                                                                 
=================================================================
Total params: 172,545
Trainable params: 172,545
Non-trainable params: 0
_________________________________________________________________

Epoch 1/200

Training mean_absolute_error: 1192.170654296875
Validation loss: 1249.1365966796875
Validation mean_absolute_error: 795.8004760742188
…
