…
Time passed: 0.028354406356811523 secs
8 features have been added: ['created_at_week_day', 'created_at_hour', 'created_at_month', 'created_at_day_of_month', 'prev_orders_count_by_market_id', 'prev_orders_avg_by_market_id', 'prev_orders_count_by_store_id', 'prev_orders_avg_by_store_id']
--- training dataset contains 143743 elements ---
--- validation dataset contains 35936 elements ---
Model: "sequential"
_________________________________________________________________
 Layer (type)                Output Shape              Param #   
=================================================================
 dense (Dense)               (None, 1, 1024)           16384     
                                                                 
 dropout (Dropout)           (None, 1, 1024)           0         
                                                                 
 dense_1 (Dense)             (None, 1, 512)            524800    
                                                                 
 dropout_1 (Dropout)         (None, 1, 512)            0         
                                                                 
 dense_2 (Dense)             (None, 1, 256)            131328    
                                                                 
 dropout_2 (Dropout)         (None, 1, 256)            0         
                                                                 
 dense_3 (Dense)             (None, 1, 128)            32896     
                                                                 
 dropout_3 (Dropout)         (None, 1, 128)            0         
                                                                 
 flatten (Flatten)           (None, 128)               0         
                                                                 
 dense_4 (Dense)             (None, 1)                 129       
                                                                 
=================================================================
Total params: 705,537
Trainable params: 705,537
Non-trainable params: 0
_________________________________________________________________

Epoch 1/200
