…
2022-08-17 01:20:03.175956: I tensorflow/core/platform/cpu_feature_guard.cc:151] This TensorFlow binary is optimized with oneAPI Deep Neural Network Library (oneDNN) to use the following CPU instructions in performance-critical operations:  AVX2 AVX512F FMA
To enable them in other operations, rebuild TensorFlow with the appropriate compiler flags.
--- training dataset contains 143646 elements ---
--- validation dataset contains 35909 elements ---
Model: "sequential"
_________________________________________________________________
 Layer (type)                Output Shape              Param #
=================================================================
 dense (Dense)               (None, 3, 512)            8192

 dropout (Dropout)           (None, 3, 512)            0

 dense_1 (Dense)             (None, 3, 256)            131328

 dropout_1 (Dropout)         (None, 3, 256)            0

 dense_2 (Dense)             (None, 3, 128)            32896

 dropout_2 (Dropout)         (None, 3, 128)            0

 flatten (Flatten)           (None, 384)               0

 dense_3 (Dense)             (None, 1)                 385

=================================================================
Total params: 172,801
Trainable params: 172,801
Non-trainable params: 0
_________________________________________________________________

Epoch 1/200

Training mean_absolute_error: 1053.5377197265625
Validation loss: 1299.235107421875
Validation mean_absolute_error: 725.4536743164062
Time taken for epoch: 10.19s

Epoch 2/200

Training mean_absolute_error: 794.419921875
…
