…
2022-08-17 02:00:37.069179: I tensorflow/core/platform/cpu_feature_guard.cc:151] This TensorFlow binary is optimized with oneAPI Deep Neural Network Library (oneDNN) to use the following CPU instructions in performance-critical operations:  AVX2 AVX512F FMA
To enable them in other operations, rebuild TensorFlow with the appropriate compiler flags.
--- training dataset contains 143646 elements ---
--- validation dataset contains 35909 elements ---
Model: "sequential"
_________________________________________________________________
 Layer (type)                Output Shape              Param #   
=================================================================
 conv2d (Conv2D)             (None, 3, 15, 128)        3968      
                                                                 
 batch_normalization (BatchN  (None, 3, 15, 128)       512       
 ormalization)                                                   
                                                                 
 dropout (Dropout)           (None, 3, 15, 128)        0         
                                                                 
 reshape (Reshape)           (None, 3, 1920)           0         
                                                                 
 bidirectional (Bidirectiona  (None, 3, 64)            499968    
 l)                                                              
                                                                 
 dropout_1 (Dropout)         (None, 3, 64)             0         
                                                                 
 dense (Dense)               (None, 3, 100)            6500      
                                                                 
 dropout_2 (Dropout)         (None, 3, 100)            0         
                                                                 
 flatten (Flatten)           (None, 300)               0         
                                                                 
 dense_1 (Dense)             (None, 1)                 301       
                                                                 
=================================================================
Total params: 511,249
Trainable params: 510,993
Non-trainable params: 256
_________________________________________________________________

Epoch 1/200

Training mean_absolute_error: 2146.937744140625
Validation loss: 785.3502807617188
Validation mean_absolute_error: 785.3502807617188
…
