…
2022-08-17 01:42:29.284416: I tensorflow/core/platform/cpu_feature_guard.cc:151] This TensorFlow binary is optimized with oneAPI Deep Neural Network Library (oneDNN) to use the following CPU instructions in performance-critical operations:  AVX2 AVX512F FMA
To enable them in other operations, rebuild TensorFlow with the appropriate compiler flags.
--- training dataset contains 143646 elements ---
--- validation dataset contains 35909 elements ---
Model: "sequential"
_________________________________________________________________
 Layer (type)                Output Shape              Param #   
=================================================================
 dense (Dense)               (None, 3, 15, 1024)       2048      
                                                                 
 dropout (Dropout)           (None, 3, 15, 1024)       0         
                                                                 
 dense_1 (Dense)             (None, 3, 15, 512)        524800    
                                                                 
 dropout_1 (Dropout)         (None, 3, 15, 512)        0         
                                                                 
 dense_2 (Dense)             (None, 3, 15, 256)        131328    
                                                                 
 dropout_2 (Dropout)         (None, 3, 15, 256)        0         
                                                                 
 flatten (Flatten)           (None, 11520)             0         
                                                                 
 dense_3 (Dense)             (None, 1)                 11521     
                                                                 
=================================================================
Total params: 669,697
Trainable params: 669,697
Non-trainable params: 0
_________________________________________________________________

Epoch 1/200

Training mean_absolute_error: 884.2481689453125
Validation loss: 1300.7403564453125
Validation mean_absolute_error: 712.1329956054688
…
