…
2022-08-17 04:48:39.274180: I tensorflow/core/platform/cpu_feature_guard.cc:151] This TensorFlow binary is optimized with oneAPI Deep Neural Network Library (oneDNN) to use the following CPU instructions in performance-critical operations:  AVX2 AVX512F FMA
To enable them in other operations, rebuild TensorFlow with the appropriate compiler flags.
--- training dataset contains 143646 elements ---
--- validation dataset contains 35909 elements ---
Model: "sequential"
_________________________________________________________________
 Layer (type)                Output Shape              Param #
=================================================================
 conv2d (Conv2D)             (None, 3, 15, 32)         1472

 conv2d_1 (Conv2D)           (None, 3, 15, 64)         92224

 batch_normalization (BatchN  (None, 3, 15, 64)        256
 ormalization)

 dropout (Dropout)           (None, 3, 15, 64)         0

 reshape (Reshape)           (None, 3, 960)            0

 bidirectional (Bidirectiona  (None, 3, 64)            254208
 l)

 dropout_1 (Dropout)         (None, 3, 64)             0

 dense (Dense)               (None, 3, 100)            6500

 dropout_2 (Dropout)         (None, 3, 100)            0

 flatten (Flatten)           (None, 300)               0

 dense_1 (Dense)             (None, 1)                 301

=================================================================
Total params: 354,961
Trainable params: 354,833
Non-trainable params: 128
_________________________________________________________________

Epoch 1/200

Training mean_absolute_error: 2101.951416015625
Validation loss: 761.4602661132812
Validation mean_absolute_error: 761.4602661132812
Time taken for epoch: 47.84s

Epoch 2/200

Training mean_absolute_error: 828.3602905273438
…
