…
2022-08-17 05:04:55.969430: I tensorflow/core/platform/cpu_feature_guard.cc:151] This TensorFlow binary is optimized with oneAPI Deep Neural Network Library (oneDNN) to use the following CPU instructions in performance-critical operations:  AVX2 AVX512F FMA
To enable them in other operations, rebuild TensorFlow with the appropriate compiler flags.
--- training dataset contains 143646 elements ---
--- validation dataset contains 35909 elements ---
Model: "sequential"
_________________________________________________________________
 Layer (type)                Output Shape              Param #
=================================================================
 bidirectional (Bidirectiona  (None, 3, 256)           147456
 l)

 dropout (Dropout)           (None, 3, 256)            0

 dense (Dense)               (None, 3, 256)            65792

 dropout_1 (Dropout)         (None, 3, 256)            0

 flatten (Flatten)           (None, 768)               0

 dense_1 (Dense)             (None, 1)                 769

=================================================================
Total params: 214,017
Trainable params: 214,017
Non-trainable params: 0
_________________________________________________________________

Epoch 1/200

Training mean_absolute_error: 1378.3636474609375
Validation loss: 731.9386596679688
Validation mean_absolute_error: 731.9386596679688
Time taken for epoch: 34.23s

Epoch 2/200

Training mean_absolute_error: 799.9810180664062
…
