…
2022-08-17 05:15:06.301051: I tensorflow/core/platform/cpu_feature_guard.cc:151] This TensorFlow binary is optimized with oneAPI Deep Neural Network Library (oneDNN) to use the following CPU instructions in performance-critical operations:  AVX2 AVX512F FMA
To enable them in other operations, rebuild TensorFlow with the appropriate compiler flags.
--- training dataset contains 143646 elements ---
--- validation dataset contains 35909 elements ---
Model: "sequential"
_________________________________________________________________
 Layer (type)                Output Shape              Param #   
=================================================================
 conv2d (Conv2D)             (None, 3, 15, 32)         128       
                                                                 
 conv2d_1 (Conv2D)           (None, 3, 15, 64)         6208      
                                                                 
 layer_normalization (LayerN  (None, 3, 15, 64)        128       
 ormalization)                                                   
                                                                 
 dropout (Dropout)           (None, 3, 15, 64)         0         
                                                                 
 reshape (Reshape)           (None, 3, 960)            0         
                                                                 
 bidirectional (Bidirectiona  (None, 3, 64)            254208    
 l)                                                              
                                                                 
 dropout_1 (Dropout)         (None, 3, 64)             0         
                                                                 
 dense (Dense)               (None, 3, 100)            6500      
                                                                 
 dropout_2 (Dropout)         (None, 3, 100)            0         
                                                                 
 flatten (Flatten)           (None, 300)               0         
                                                                 
 dense_1 (Dense)             (None, 1)                 301       
                                                                 
=================================================================
Total params: 267,473
Trainable params: 267,473
Non-trainable params: 0
_________________________________________________________________

Epoch 1/200

Training mean_absolute_error: 1145.3231201171875
Validation loss: 742.906494140625
Validation mean_absolute_error: 742.906494140625
…
