…
2022-08-17 06:22:42.300850: I tensorflow/core/platform/cpu_feature_guard.cc:151] This TensorFlow binary is optimized with oneAPI Deep Neural Network Library (oneDNN) to use the following CPU instructions in performance-critical operations:  AVX2 AVX512F FMA
To enable them in other operations, rebuild TensorFlow with the appropriate compiler flags.
--- training dataset contains 145940 elements ---
--- validation dataset contains 33615 elements ---
Model: "sequential"
_________________________________________________________________
 Layer (type)                Output Shape              Param #
=================================================================
 conv2d (Conv2D)             (None, 3, 15, 32)         128

 conv2d_1 (Conv2D)           (None, 3, 15, 64)         6208

 layer_normalization (LayerN  (None, 3, 15, 64)        128
 ormalization)

 dropout (Dropout)           (None, 3, 15, 64)         0

 reshape (Reshape)           (None, 3, 960)            0

 bidirectional (Bidirectiona  (None, 3, 64)            254208
 l)

 dropout_1 (Dropout)         (None, 3, 64)             0

 dense (Dense)               (None, 3, 100)            6500

 dropout_2 (Dropout)         (None, 3, 100)            0

 flatten (Flatten)           (None, 300)               0

 dense_1 (Dense)             (None, 1)                 301

=================================================================
Total params: 267,473
Trainable params: 267,473
Non-trainable params: 0
_________________________________________________________________

Epoch 1/200

Training mean_absolute_error: 2095.3623046875
Validation loss: 766.1720581054688
Validation mean_absolute_error: 766.1720581054688
Time taken for epoch: 57.85s

Epoch 2/200

Training mean_absolute_error: 817.8106689453125
…
