…
2022-08-17 17:23:13.158944: I tensorflow/core/platform/cpu_feature_guard.cc:151] This TensorFlow binary is optimized with oneAPI Deep Neural Network Library (oneDNN) to use the following CPU instructions in performance-critical operations:  AVX2 AVX512F FMA
To enable them in other operations, rebuild TensorFlow with the appropriate compiler flags.
--- training dataset contains 143646 elements ---
--- validation dataset contains 35909 elements ---
Model: "sequential"
_________________________________________________________________
 Layer (type)                Output Shape              Param #   
=================================================================
 conv2d (Conv2D)             (None, 5, 15, 32)         128       
                                                                 
 conv2d_1 (Conv2D)           (None, 5, 15, 64)         6208      
                                                                 
 batch_normalization (BatchN  (None, 5, 15, 64)        256       
 ormalization)                                                   
                                                                 
 dropout (Dropout)           (None, 5, 15, 64)         0         
                                                                 
 reshape (Reshape)           (None, 5, 960)            0         
                                                                 
 bidirectional (Bidirectiona  (None, 5, 64)            254208    
 l)                                                              
                                                                 
 dropout_1 (Dropout)         (None, 5, 64)             0         
                                                                 
 dense (Dense)               (None, 5, 100)            6500      
                                                                 
 dropout_2 (Dropout)         (None, 5, 100)            0         
                                                                 
 flatten (Flatten)           (None, 500)               0         
                                                                 
 dense_1 (Dense)             (None, 1)                 501       
                                                                 
=================================================================
Total params: 267,801
Trainable params: 267,673
Non-trainable params: 128
_________________________________________________________________

Epoch 1/200

Training mean_absolute_error: 1811.4803466796875
Validation loss: 743.5678100585938
Validation mean_absolute_error: 743.5678100585938
…
