…
2022-08-17 18:32:03.974608: I tensorflow/core/platform/cpu_feature_guard.cc:151] This TensorFlow binary is optimized with oneAPI Deep Neural Network Library (oneDNN) to use the following CPU instructions in performance-critical operations:  AVX2 AVX512F FMA
To enable them in other operations, rebuild TensorFlow with the appropriate compiler flags.
--- training dataset contains 143646 elements ---
--- validation dataset contains 35909 elements ---
Model: "sequential"
_________________________________________________________________
 Layer (type)                Output Shape              Param #   
=================================================================
 conv2d (Conv2D)             (None, 3, 15, 32)         128       
                                                                 
 conv2d_1 (Conv2D)           (None, 3, 15, 64)         6208      
                                                                 
 batch_normalization (BatchN  (None, 3, 15, 64)        256       
 ormalization)                                                   
                                                                 
 dropout (Dropout)           (None, 3, 15, 64)         0         
                                                                 
 reshape (Reshape)           (None, 3, 960)            0         
                                                                 
 bidirectional (Bidirectiona  (None, 3, 64)            254208    
 l)                                                              
                                                                 
 dropout_1 (Dropout)         (None, 3, 64)             0         
                                                                 
 dense (Dense)               (None, 3, 512)            33280     
                                                                 
 flatten (Flatten)           (None, 1536)              0         
                                                                 
 dense_1 (Dense)             (None, 1)                 1537      
                                                                 
=================================================================
Total params: 295,617
Trainable params: 295,489
Non-trainable params: 128
_________________________________________________________________

Epoch 1/200

Training mean_absolute_error: 1472.828857421875
Validation loss: 743.4194946289062
Validation mean_absolute_error: 743.4194946289062
…
