…
2022-08-18 16:57:16.416661: I tensorflow/core/platform/cpu_feature_guard.cc:151] This TensorFlow binary is optimized with oneAPI Deep Neural Network Library (oneDNN) to use the following CPU instructions in performance-critical operations:  AVX2 AVX512F FMA
To enable them in other operations, rebuild TensorFlow with the appropriate compiler flags.
--- training dataset contains 143646 elements ---
--- validation dataset contains 35909 elements ---
Model: "sequential"
_________________________________________________________________
 Layer (type)                Output Shape              Param #   
=================================================================
 conv2d (Conv2D)             (None, 3, 15, 8)          32        
                                                                 
 conv2d_1 (Conv2D)           (None, 3, 15, 16)         400       
                                                                 
 batch_normalization (BatchN  (None, 3, 15, 16)        64        
 ormalization)                                                   
                                                                 
 dropout (Dropout)           (None, 3, 15, 16)         0         
                                                                 
 reshape (Reshape)           (None, 3, 240)            0         
                                                                 
 bidirectional (Bidirectiona  (None, 3, 64)            69888     
 l)                                                              
                                                                 
 dropout_1 (Dropout)         (None, 3, 64)             0         
                                                                 
 dense (Dense)               (None, 3, 100)            6500      
                                                                 
 dropout_2 (Dropout)         (None, 3, 100)            0         
                                                                 
 flatten (Flatten)           (None, 300)               0         
                                                                 
 dense_1 (Dense)             (None, 1)                 301       
                                                                 
=================================================================
Total params: 77,185
Trainable params: 77,153
Non-trainable params: 32
_________________________________________________________________

Epoch 1/200

Training mean_absolute_error: 2075.972412109375
Validation loss: 761.56591796875
Validation mean_absolute_error: 761.56591796875
…
Time passed: 0.04188179969787598 secs
8 features have been added: ['created_at_week_day', 'created_at_hour', 'created_at_month', 'created_at_day_of_month', 'prev_orders_count_by_market_id', 'prev_orders_avg_by_market_id', 'prev_orders_count_by_store_id', 'prev_orders_avg_by_store_id']
--- training dataset contains 28729 elements ---
--- validation dataset contains 35909 elements ---
Model: "sequential_1"
_________________________________________________________________
 Layer (type)                Output Shape              Param #   
=================================================================
 conv2d_2 (Conv2D)           (None, 3, 23, 8)          32        
                                                                 
 conv2d_3 (Conv2D)           (None, 3, 23, 16)         400       
                                                                 
 batch_normalization_1 (Batc  (None, 3, 23, 16)        64        
 hNormalization)                                                 
                                                                 
 dropout_3 (Dropout)         (None, 3, 23, 16)         0         
                                                                 
 reshape_1 (Reshape)         (None, 3, 368)            0         
                                                                 
 bidirectional_1 (Bidirectio  (None, 3, 64)            102656    
 nal)                                                            
                                                                 
 dropout_4 (Dropout)         (None, 3, 64)             0         
                                                                 
 dense_2 (Dense)             (None, 3, 100)            6500      
                                                                 
 dropout_5 (Dropout)         (None, 3, 100)            0         
                                                                 
 flatten_1 (Flatten)         (None, 300)               0         
                                                                 
 dense_3 (Dense)             (None, 1)                 301       
                                                                 
=================================================================
Total params: 109,953
Trainable params: 109,921
Non-trainable params: 32
_________________________________________________________________

Epoch 1/200

Training mean_absolute_error: 3126.90087890625
Validation loss: 2672.910888671875
Validation mean_absolute_error: 2672.910888671875
…
