…
2022-08-15 02:49:52.555764: I tensorflow/core/platform/cpu_feature_guard.cc:151] This TensorFlow binary is optimized with oneAPI Deep Neural Network Library (oneDNN) to use the following CPU instructions in performance-critical operations:  AVX2 AVX512F FMA
To enable them in other operations, rebuild TensorFlow with the appropriate compiler flags.
Reading prev_orders_market_id...
Time passed: 0.14847493171691895 secs
Reading prev_orders_store_id...
Time passed: 0.1444110870361328 secs
--- training dataset contains 143743 elements ---
--- validation dataset contains 35936 elements ---
Model: "sequential"
_________________________________________________________________
 Layer (type)                Output Shape              Param #   
=================================================================
 dense (Dense)               (None, 1, 8)              112       
                                                                 
 dropout (Dropout)           (None, 1, 8)              0         
                                                                 
 dense_1 (Dense)             (None, 1, 16)             144       
                                                                 
 dropout_1 (Dropout)         (None, 1, 16)             0         
                                                                 
 dense_2 (Dense)             (None, 1, 32)             544       
                                                                 
 dropout_2 (Dropout)         (None, 1, 32)             0         
                                                                 
 flatten (Flatten)           (None, 32)                0         
                                                                 
 dense_3 (Dense)             (None, 1)                 33        
                                                                 
=================================================================
Total params: 833
Trainable params: 833
Non-trainable params: 0
_________________________________________________________________

Epoch 1/15

Training mean_absolute_error: 1790.5924072265625
Validation loss: 1110.47216796875
Validation mean_absolute_error: 1110.47216796875
…
