…
2022-08-23 20:17:12.578730: I tensorflow/core/platform/cpu_feature_guard.cc:151] This TensorFlow binary is optimized with oneAPI Deep Neural Network Library (oneDNN) to use the following CPU instructions in performance-critical operations:  AVX2 AVX512F FMA
To enable them in other operations, rebuild TensorFlow with the appropriate compiler flags.
--- training dataset contains 143646 elements ---
--- validation dataset contains 35909 elements ---
Model: "sequential"
_________________________________________________________________
 Layer (type)                Output Shape              Param #   
=================================================================
 conv2d (Conv2D)             (None, 3, 17, 8)          80        
                                                                 
 conv2d_1 (Conv2D)           (None, 3, 17, 16)         1168      
                                                                 
 batch_normalization (BatchN  (None, 3, 17, 16)        64        
 ormalization)                                                   
                                                                 
 dropout (Dropout)           (None, 3, 17, 16)         0         
                                                                 
 reshape (Reshape)           (None, 3, 272)            0         
                                                                 
 bidirectional (Bidirectiona  (None, 3, 64)            78080     
 l)                                                              
                                                                 
 dropout_1 (Dropout)         (None, 3, 64)             0         
                                                                 
 dense (Dense)               (None, 3, 100)            6500      
                                                                 
 dropout_2 (Dropout)         (None, 3, 100)            0         
                                                                 
 flatten (Flatten)           (None, 300)               0         
                                                                 
 dense_1 (Dense)             (None, 1)                 301       
                                                                 
=================================================================
Total params: 86,193
Trainable params: 86,161
Non-trainable params: 32
_________________________________________________________________

Epoch 1/200

Training mean_absolute_error: 2089.213623046875

Training lateness: 0.8667765259742737

Training earliness: 0.010956951417028904
…
