…
2022-08-26 15:18:35.754928: I tensorflow/core/platform/cpu_feature_guard.cc:151] This TensorFlow binary is optimized with oneAPI Deep Neural Network Library (oneDNN) to use the following CPU instructions in performance-critical operations:  AVX2 AVX512F FMA
To enable them in other operations, rebuild TensorFlow with the appropriate compiler flags.
--- training dataset contains 143646 elements ---
--- validation dataset contains 35909 elements ---
Model: "sequential"
_________________________________________________________________
 Layer (type)                Output Shape              Param #
=================================================================
 conv2d (Conv2D)             (None, 5, 22, 32)         320

 conv2d_1 (Conv2D)           (None, 5, 22, 64)         18496

 batch_normalization (BatchN  (None, 5, 22, 64)        256
 ormalization)

 dropout (Dropout)           (None, 5, 22, 64)         0

 reshape (Reshape)           (None, 5, 1408)           0

 bidirectional (Bidirectiona  (None, 5, 64)            368896
 l)

 dropout_1 (Dropout)         (None, 5, 64)             0

 dense (Dense)               (None, 5, 100)            6500

 dropout_2 (Dropout)         (None, 5, 100)            0

 flatten (Flatten)           (None, 500)               0

 dense_1 (Dense)             (None, 1)                 501

=================================================================
Total params: 394,969
Trainable params: 394,841
Non-trainable params: 128
_________________________________________________________________

Epoch 1/200
train loss: 5065771.5
train mean_absolute_error: 1837.6370849609375
train lateness: 0.7616866230964661
train earliness: 0.045460037887096405
validation loss: 961102.875
validation mean_absolute_error: 750.8250122070312
…
