…
2022-08-24 01:07:36.235200: I tensorflow/core/platform/cpu_feature_guard.cc:151] This TensorFlow binary is optimized with oneAPI Deep Neural Network Library (oneDNN) to use the following CPU instructions in performance-critical operations:  AVX2 AVX512F FMA
To enable them in other operations, rebuild TensorFlow with the appropriate compiler flags.
--- training dataset contains 143646 elements ---
--- validation dataset contains 35909 elements ---
Model: "sequential"
_________________________________________________________________
 Layer (type)                Output Shape              Param #   
=================================================================
 conv2d (Conv2D)             (None, 5, 17, 32)         320       
                                                                 
 conv2d_1 (Conv2D)           (None, 5, 17, 64)         18496     
                                                                 
 batch_normalization (BatchN  (None, 5, 17, 64)        256       
 ormalization)                                                   
                                                                 
 dropout (Dropout)           (None, 5, 17, 64)         0         
                                                                 
 reshape (Reshape)           (None, 5, 1088)           0         
                                                                 
 bidirectional (Bidirectiona  (None, 5, 64)            286976    
 l)                                                              
                                                                 
 dropout_1 (Dropout)         (None, 5, 64)             0         
                                                                 
 dense (Dense)               (None, 5, 100)            6500      
                                                                 
 dropout_2 (Dropout)         (None, 5, 100)            0         
                                                                 
 flatten (Flatten)           (None, 500)               0         
                                                                 
 dense_1 (Dense)             (None, 1)                 501       
                                                                 
=================================================================
Total params: 313,049
Trainable params: 312,921
Non-trainable params: 128
_________________________________________________________________

Epoch 1/200
train loss: 5089044.0
train mean_absolute_error: 1843.9979248046875
train lateness: 0.764936625957489
train earliness: 0.04368067905306816
…
