…
2022-08-24 02:23:26.201872: I tensorflow/core/platform/cpu_feature_guard.cc:151] This TensorFlow binary is optimized with oneAPI Deep Neural Network Library (oneDNN) to use the following CPU instructions in performance-critical operations:  AVX2 AVX512F FMA
To enable them in other operations, rebuild TensorFlow with the appropriate compiler flags.
--- training dataset contains 143646 elements ---
--- validation dataset contains 35909 elements ---
Model: "sequential"
_________________________________________________________________
 Layer (type)                Output Shape              Param #   
=================================================================
 conv2d (Conv2D)             (None, 5, 16, 32)         320       
                                                                 
 conv2d_1 (Conv2D)           (None, 5, 16, 64)         18496     
                                                                 
 batch_normalization (BatchN  (None, 5, 16, 64)        256       
 ormalization)                                                   
                                                                 
 dropout (Dropout)           (None, 5, 16, 64)         0         
                                                                 
 reshape (Reshape)           (None, 5, 1024)           0         
                                                                 
 bidirectional (Bidirectiona  (None, 5, 64)            270592    
 l)                                                              
                                                                 
 dropout_1 (Dropout)         (None, 5, 64)             0         
                                                                 
 dense (Dense)               (None, 5, 100)            6500      
                                                                 
 dropout_2 (Dropout)         (None, 5, 100)            0         
                                                                 
 flatten (Flatten)           (None, 500)               0         
                                                                 
 dense_1 (Dense)             (None, 1)                 501       
                                                                 
=================================================================
Total params: 296,665
Trainable params: 296,537
Non-trainable params: 128
_________________________________________________________________

Epoch 1/200
train loss: 5013633.5
train mean_absolute_error: 1822.8450927734375
train lateness: 0.7516111135482788
train earliness: 0.051162127405405045
…
