…
2022-08-24 05:21:50.610056: I tensorflow/core/platform/cpu_feature_guard.cc:151] This TensorFlow binary is optimized with oneAPI Deep Neural Network Library (oneDNN) to use the following CPU instructions in performance-critical operations:  AVX2 AVX512F FMA
To enable them in other operations, rebuild TensorFlow with the appropriate compiler flags.
--- training dataset contains 143646 elements ---
--- validation dataset contains 35909 elements ---
Model: "sequential"
_________________________________________________________________
 Layer (type)                Output Shape              Param #   
=================================================================
 conv2d (Conv2D)             (None, 5, 19, 32)         320       
                                                                 
 conv2d_1 (Conv2D)           (None, 5, 19, 64)         18496     
                                                                 
 batch_normalization (BatchN  (None, 5, 19, 64)        256       
 ormalization)                                                   
                                                                 
 dropout (Dropout)           (None, 5, 19, 64)         0         
                                                                 
 reshape (Reshape)           (None, 5, 1216)           0         
                                                                 
 bidirectional (Bidirectiona  (None, 5, 64)            319744    
 l)                                                              
                                                                 
 dropout_1 (Dropout)         (None, 5, 64)             0         
                                                                 
 dense (Dense)               (None, 5, 100)            6500      
                                                                 
 dropout_2 (Dropout)         (None, 5, 100)            0         
                                                                 
 flatten (Flatten)           (None, 500)               0         
                                                                 
 dense_1 (Dense)             (None, 1)                 501       
                                                                 
=================================================================
Total params: 345,817
Trainable params: 345,689
Non-trainable params: 128
_________________________________________________________________

Epoch 1/200
train loss: 5190058.0
train mean_absolute_error: 1871.1385498046875
train lateness: 0.7788587212562561
train earliness: 0.03741447255015373
…
