…
2022-08-24 05:55:58.121081: I tensorflow/core/platform/cpu_feature_guard.cc:151] This TensorFlow binary is optimized with oneAPI Deep Neural Network Library (oneDNN) to use the following CPU instructions in performance-critical operations:  AVX2 AVX512F FMA
To enable them in other operations, rebuild TensorFlow with the appropriate compiler flags.
--- training dataset contains 143646 elements ---
--- validation dataset contains 35909 elements ---
Model: "sequential"
_________________________________________________________________
 Layer (type)                Output Shape              Param #   
=================================================================
 conv2d (Conv2D)             (None, 10, 19, 32)        320       
                                                                 
 conv2d_1 (Conv2D)           (None, 10, 19, 64)        18496     
                                                                 
 batch_normalization (BatchN  (None, 10, 19, 64)       256       
 ormalization)                                                   
                                                                 
 dropout (Dropout)           (None, 10, 19, 64)        0         
                                                                 
 reshape (Reshape)           (None, 10, 1216)          0         
                                                                 
 bidirectional (Bidirectiona  (None, 10, 64)           319744    
 l)                                                              
                                                                 
 dropout_1 (Dropout)         (None, 10, 64)            0         
                                                                 
 dense (Dense)               (None, 10, 100)           6500      
                                                                 
 dropout_2 (Dropout)         (None, 10, 100)           0         
                                                                 
 flatten (Flatten)           (None, 1000)              0         
                                                                 
 dense_1 (Dense)             (None, 1)                 1001      
                                                                 
=================================================================
Total params: 346,317
Trainable params: 346,189
Non-trainable params: 128
_________________________________________________________________

Epoch 1/200
train loss: 4100983.25
train mean_absolute_error: 1584.814697265625
train lateness: 0.6268521547317505
train earliness: 0.11763282865285873
…
