…
2022-08-26 14:37:36.147957: I tensorflow/core/platform/cpu_feature_guard.cc:151] This TensorFlow binary is optimized with oneAPI Deep Neural Network Library (oneDNN) to use the following CPU instructions in performance-critical operations:  AVX2 AVX512F FMA
To enable them in other operations, rebuild TensorFlow with the appropriate compiler flags.
--- training dataset contains 143646 elements ---
--- validation dataset contains 35909 elements ---
Model: "sequential"
_________________________________________________________________
 Layer (type)                Output Shape              Param #   
=================================================================
 conv2d (Conv2D)             (None, 10, 20, 32)        320       
                                                                 
 conv2d_1 (Conv2D)           (None, 10, 20, 64)        18496     
                                                                 
 batch_normalization (BatchN  (None, 10, 20, 64)       256       
 ormalization)                                                   
                                                                 
 dropout (Dropout)           (None, 10, 20, 64)        0         
                                                                 
 reshape (Reshape)           (None, 10, 1280)          0         
                                                                 
 bidirectional (Bidirectiona  (None, 10, 64)           336128    
 l)                                                              
                                                                 
 dropout_1 (Dropout)         (None, 10, 64)            0         
                                                                 
 dense (Dense)               (None, 10, 100)           6500      
                                                                 
 dropout_2 (Dropout)         (None, 10, 100)           0         
                                                                 
 flatten (Flatten)           (None, 1000)              0         
                                                                 
 dense_1 (Dense)             (None, 1)                 1001      
                                                                 
=================================================================
Total params: 362,701
Trainable params: 362,573
Non-trainable params: 128
_________________________________________________________________

Epoch 1/200
train loss: 4125704.25
train mean_absolute_error: 1590.5570068359375
train lateness: 0.6301244497299194
train earliness: 0.11524730175733566
…
