…
2022-08-26 20:36:26.268972: I tensorflow/core/platform/cpu_feature_guard.cc:151] This TensorFlow binary is optimized with oneAPI Deep Neural Network Library (oneDNN) to use the following CPU instructions in performance-critical operations:  AVX2 AVX512F FMA
To enable them in other operations, rebuild TensorFlow with the appropriate compiler flags.
--- training dataset contains 143646 elements ---
--- validation dataset contains 35909 elements ---
Model: "sequential"
_________________________________________________________________
 Layer (type)                Output Shape              Param #   
=================================================================
 conv2d (Conv2D)             (None, 1, 22, 32)         320       
                                                                 
 conv2d_1 (Conv2D)           (None, 1, 22, 64)         18496     
                                                                 
 batch_normalization (BatchN  (None, 1, 22, 64)        256       
 ormalization)                                                   
                                                                 
 dropout (Dropout)           (None, 1, 22, 64)         0         
                                                                 
 reshape (Reshape)           (None, 1, 1408)           0         
                                                                 
 bidirectional (Bidirectiona  (None, 1, 64)            368896    
 l)                                                              
                                                                 
 dropout_1 (Dropout)         (None, 1, 64)             0         
                                                                 
 dense (Dense)               (None, 1, 100)            6500      
                                                                 
 dropout_2 (Dropout)         (None, 1, 100)            0         
                                                                 
 flatten (Flatten)           (None, 100)               0         
                                                                 
 dense_1 (Dense)             (None, 1)                 101       
                                                                 
=================================================================
Total params: 394,569
Trainable params: 394,441
Non-trainable params: 128
_________________________________________________________________

Epoch 1/200
train loss: 17374374.0
train mean_absolute_error: 2729.643798828125
train lateness: 0.9990506768226624
train earliness: 0.0
…
