…
2022-08-26 22:32:43.293835: I tensorflow/core/platform/cpu_feature_guard.cc:151] This TensorFlow binary is optimized with oneAPI Deep Neural Network Library (oneDNN) to use the following CPU instructions in performance-critical operations:  AVX2 AVX512F FMA
To enable them in other operations, rebuild TensorFlow with the appropriate compiler flags.
--- training dataset contains 143646 elements ---
--- validation dataset contains 35909 elements ---
Model: "sequential"
_________________________________________________________________
 Layer (type)                Output Shape              Param #   
=================================================================
 conv2d (Conv2D)             (None, 3, 21, 32)         320       
                                                                 
 conv2d_1 (Conv2D)           (None, 3, 21, 64)         18496     
                                                                 
 batch_normalization (BatchN  (None, 3, 21, 64)        256       
 ormalization)                                                   
                                                                 
 dropout (Dropout)           (None, 3, 21, 64)         0         
                                                                 
 reshape (Reshape)           (None, 3, 1344)           0         
                                                                 
 bidirectional (Bidirectiona  (None, 3, 64)            352512    
 l)                                                              
                                                                 
 dropout_1 (Dropout)         (None, 3, 64)             0         
                                                                 
 dense (Dense)               (None, 3, 100)            6500      
                                                                 
 dropout_2 (Dropout)         (None, 3, 100)            0         
                                                                 
 flatten (Flatten)           (None, 300)               0         
                                                                 
 dense_1 (Dense)             (None, 1)                 301       
                                                                 
=================================================================
Total params: 378,385
Trainable params: 378,257
Non-trainable params: 128
_________________________________________________________________

Epoch 1/200
train loss: 12484583.0
train mean_absolute_error: 2166.364990234375
train lateness: 0.9033541679382324
train earliness: 0.002928107976913452
…
