…
2022-08-27 02:31:18.131752: I tensorflow/core/platform/cpu_feature_guard.cc:151] This TensorFlow binary is optimized with oneAPI Deep Neural Network Library (oneDNN) to use the following CPU instructions in performance-critical operations:  AVX2 AVX512F FMA
To enable them in other operations, rebuild TensorFlow with the appropriate compiler flags.
--- training dataset contains 143646 elements ---
--- validation dataset contains 35909 elements ---
Model: "sequential"
_________________________________________________________________
 Layer (type)                Output Shape              Param #   
=================================================================
 conv2d (Conv2D)             (None, 10, 22, 32)        320       
                                                                 
 conv2d_1 (Conv2D)           (None, 10, 22, 64)        18496     
                                                                 
 batch_normalization (BatchN  (None, 10, 22, 64)       256       
 ormalization)                                                   
                                                                 
 dropout (Dropout)           (None, 10, 22, 64)        0         
                                                                 
 reshape (Reshape)           (None, 10, 1408)          0         
                                                                 
 bidirectional (Bidirectiona  (None, 10, 64)           368896    
 l)                                                              
                                                                 
 dropout_1 (Dropout)         (None, 10, 64)            0         
                                                                 
 dense (Dense)               (None, 10, 100)           6500      
                                                                 
 dropout_2 (Dropout)         (None, 10, 100)           0         
                                                                 
 flatten (Flatten)           (None, 1000)              0         
                                                                 
 dense_1 (Dense)             (None, 1)                 1001      
                                                                 
=================================================================
Total params: 395,469
Trainable params: 395,341
Non-trainable params: 128
_________________________________________________________________

Epoch 1/200
train loss: 4145316.0
train mean_absolute_error: 1596.318359375
train lateness: 0.6354848742485046
train earliness: 0.11148701608181
…
