…
2022-08-27 02:09:10.651140: I tensorflow/core/platform/cpu_feature_guard.cc:151] This TensorFlow binary is optimized with oneAPI Deep Neural Network Library (oneDNN) to use the following CPU instructions in performance-critical operations:  AVX2 AVX512F FMA
To enable them in other operations, rebuild TensorFlow with the appropriate compiler flags.
--- training dataset contains 143646 elements ---
--- validation dataset contains 35909 elements ---
Model: "sequential"
_________________________________________________________________
 Layer (type)                Output Shape              Param #
=================================================================
 conv2d (Conv2D)             (None, 5, 22, 32)         320

 conv2d_1 (Conv2D)           (None, 5, 22, 64)         18496

 max_pooling2d (MaxPooling2D  (None, 5, 11, 64)        0
 )

 batch_normalization (BatchN  (None, 5, 11, 64)        256
 ormalization)

 dropout (Dropout)           (None, 5, 11, 64)         0

 reshape (Reshape)           (None, 5, 704)            0

 bidirectional (Bidirectiona  (None, 5, 64)            188672
 l)

 dropout_1 (Dropout)         (None, 5, 64)             0

 dense (Dense)               (None, 5, 100)            6500

 dropout_2 (Dropout)         (None, 5, 100)            0

 flatten (Flatten)           (None, 500)               0

 dense_1 (Dense)             (None, 1)                 501

=================================================================
Total params: 214,745
Trainable params: 214,617
Non-trainable params: 128
_________________________________________________________________

Epoch 1/200
train loss: 5112979.0
train mean_absolute_error: 1851.4356689453125
train lateness: 0.7713742852210999
train earliness: 0.0402042493224144
validation loss: 962415.75
validation mean_absolute_error: 746.05126953125
…
