…
2022-08-29 21:24:32.163540: I tensorflow/core/platform/cpu_feature_guard.cc:151] This TensorFlow binary is optimized with oneAPI Deep Neural Network Library (oneDNN) to use the following CPU instructions in performance-critical operations:  AVX2 FMA
To enable them in other operations, rebuild TensorFlow with the appropriate compiler flags.
--- training dataset contains 143646 elements ---
--- validation dataset contains 35909 elements ---
Model: "sequential"
_________________________________________________________________
 Layer (type)                Output Shape              Param #   
=================================================================
 conv2d (Conv2D)             (None, 5, 22, 32)         320       
                                                                 
 conv2d_1 (Conv2D)           (None, 5, 22, 64)         18496     
                                                                 
 max_pooling2d (MaxPooling2D  (None, 5, 11, 64)        0         
 )                                                               
                                                                 
 batch_normalization (BatchN  (None, 5, 11, 64)        256       
 ormalization)                                                   
                                                                 
 dropout (Dropout)           (None, 5, 11, 64)         0         
                                                                 
 reshape (Reshape)           (None, 5, 704)            0         
                                                                 
 bidirectional (Bidirectiona  (None, 5, 128)           393728    
 l)                                                              
                                                                 
 dense (Dense)               (None, 5, 256)            33024     
                                                                 
 dropout_1 (Dropout)         (None, 5, 256)            0         
                                                                 
 flatten (Flatten)           (None, 1280)              0         
                                                                 
 dense_1 (Dense)             (None, 1)                 1281      
                                                                 
=================================================================
Total params: 447,105
Trainable params: 446,977
Non-trainable params: 128
_________________________________________________________________

Epoch 1/200
train loss: 2333697.25
train mean_absolute_error: 947.9892578125
train lateness: 0.30274564027786255
train earliness: 0.27502086758613586
…
