…
2022-08-29 21:26:59.749086: I tensorflow/core/platform/cpu_feature_guard.cc:151] This TensorFlow binary is optimized with oneAPI Deep Neural Network Library (oneDNN) to use the following CPU instructions in performance-critical operations:  AVX2 FMA
To enable them in other operations, rebuild TensorFlow with the appropriate compiler flags.
--- training dataset contains 143646 elements ---
--- validation dataset contains 35909 elements ---
Model: "sequential"
_________________________________________________________________
 Layer (type)                Output Shape              Param #   
=================================================================
 conv2d (Conv2D)             (None, 5, 22, 8)          80        
                                                                 
 conv2d_1 (Conv2D)           (None, 5, 22, 16)         1168      
                                                                 
 max_pooling2d (MaxPooling2D  (None, 5, 11, 16)        0         
 )                                                               
                                                                 
 batch_normalization (BatchN  (None, 5, 11, 16)        64        
 ormalization)                                                   
                                                                 
 dropout (Dropout)           (None, 5, 11, 16)         0         
                                                                 
 conv2d_2 (Conv2D)           (None, 5, 11, 32)         4640      
                                                                 
 conv2d_3 (Conv2D)           (None, 5, 11, 64)         18496     
                                                                 
 max_pooling2d_1 (MaxPooling  (None, 5, 5, 64)         0         
 2D)                                                             
                                                                 
 batch_normalization_1 (Batc  (None, 5, 5, 64)         256       
 hNormalization)                                                 
                                                                 
 dropout_1 (Dropout)         (None, 5, 5, 64)          0         
                                                                 
 reshape (Reshape)           (None, 5, 320)            0         
                                                                 
 bidirectional (Bidirectiona  (None, 5, 128)           197120    
 l)                                                              
                                                                 
 dense (Dense)               (None, 5, 256)            33024     
                                                                 
 dropout_2 (Dropout)         (None, 5, 256)            0         
                                                                 
 flatten (Flatten)           (None, 1280)              0         
                                                                 
 dense_1 (Dense)             (None, 1)                 1281      
                                                                 
=================================================================
Total params: 256,129
Trainable params: 255,969
Non-trainable params: 160
_________________________________________________________________

Epoch 1/200
train loss: 2275752.75
train mean_absolute_error: 923.1050415039062
train lateness: 0.29497161507606506
train earliness: 0.2672969400882721
…
