…
2022-08-15 02:50:44.625679: I tensorflow/core/platform/cpu_feature_guard.cc:151] This TensorFlow binary is optimized with oneAPI Deep Neural Network Library (oneDNN) to use the following CPU instructions in performance-critical operations:  AVX2 AVX512F FMA
To enable them in other operations, rebuild TensorFlow with the appropriate compiler flags.
Reading prev_orders_market_id...
Time passed: 0.14368462562561035 secs
Reading prev_orders_store_id...
Time passed: 0.2057182788848877 secs
--- training dataset contains 143743 elements ---
--- validation dataset contains 35936 elements ---
Model: "sequential"
_________________________________________________________________
 Layer (type)                Output Shape              Param #   
=================================================================
 dense (Dense)               (None, 1, 128)            1792      
                                                                 
 dropout (Dropout)           (None, 1, 128)            0         
                                                                 
 dense_1 (Dense)             (None, 1, 64)             8256      
                                                                 
 dropout_1 (Dropout)         (None, 1, 64)             0         
                                                                 
 dense_2 (Dense)             (None, 1, 32)             2080      
                                                                 
 dropout_2 (Dropout)         (None, 1, 32)             0         
                                                                 
 flatten (Flatten)           (None, 32)                0         
                                                                 
 dense_3 (Dense)             (None, 1)                 33        
                                                                 
=================================================================
Total params: 12,161
Trainable params: 12,161
Non-trainable params: 0
_________________________________________________________________

Epoch 1/15

Training mean_absolute_error: 1495.9908447265625
Validation loss: 910.0384521484375
Validation mean_absolute_error: 910.0384521484375
…
