…
ustomer_by_store_id']
--- Stacking for market_id done in 1113.3941407203674 secs with final number of features: 26 ---
-------------------------------
New job directory is /home/alirachidi/doordash/prediction/cache/train_70/0
2022-08-30 00:22:30.151288: I tensorflow/core/platform/cpu_feature_guard.cc:151] This TensorFlow binary is optimized with oneAPI Deep Neural Network Library (oneDNN) to use the following CPU instructions in performance-critical operations:  AVX2 FMA
To enable them in other operations, rebuild TensorFlow with the appropriate compiler flags.
--- training dataset has shape: (143646, 5, 26) ---
--- validation dataset has shape: (35909, 5, 26) ---
Model: "sequential"
_________________________________________________________________
 Layer (type)                Output Shape              Param #
=================================================================
 conv2d (Conv2D)             (None, 5, 26, 32)         320

 conv2d_1 (Conv2D)           (None, 5, 26, 64)         18496

 max_pooling2d (MaxPooling2D  (None, 5, 13, 64)        0
 )

 batch_normalization (BatchN  (None, 5, 13, 64)        256
 ormalization)

 dropout (Dropout)           (None, 5, 13, 64)         0

 reshape (Reshape)           (None, 5, 832)            0

 bidirectional (Bidirectiona  (None, 5, 128)           459264
 l)

 dense (Dense)               (None, 5, 256)            33024

 dropout_1 (Dropout)         (None, 5, 256)            0

 flatten (Flatten)           (None, 1280)              0

 dense_1 (Dense)             (None, 1)                 1281

=================================================================
Total params: 512,641
Trainable params: 512,513
Non-trainable params: 128
_________________________________________________________________

Epoch 1/200
train loss: 5740606.0
train mean_absolute_error: 1364.3746337890625
train lateness: 0.5134890079498291
train earliness: 0.17100262641906738
validation loss: 977233.125
validation mean_absolute_error: 774.5740356445312
…
