…
_customer_by_store_id']
--- Stacking for store_id done in 1416.803293466568 secs with final number of features: 26 ---
-------------------------------
New job directory is /home/alirachidi/doordash/prediction/cache/train_73/0
2022-08-30 08:43:30.667755: I tensorflow/core/platform/cpu_feature_guard.cc:151] This TensorFlow binary is optimized with oneAPI Deep Neural Network Library (oneDNN) to use the following CPU instructions in performance-critical operations:  AVX2 FMA
To enable them in other operations, rebuild TensorFlow with the appropriate compiler flags.
--- training dataset has shape: (145940, 5, 26) ---
--- validation dataset has shape: (33615, 5, 26) ---
Model: "sequential"
_________________________________________________________________
 Layer (type)                Output Shape              Param #   
=================================================================
 conv2d (Conv2D)             (None, 5, 26, 32)         320       
                                                                 
 conv2d_1 (Conv2D)           (None, 5, 26, 64)         18496     
                                                                 
 batch_normalization (BatchN  (None, 5, 26, 64)        256       
 ormalization)                                                   
                                                                 
 dropout (Dropout)           (None, 5, 26, 64)         0         
                                                                 
 reshape (Reshape)           (None, 5, 1664)           0         
                                                                 
 bidirectional (Bidirectiona  (None, 5, 64)            434432    
 l)                                                              
                                                                 
 dropout_1 (Dropout)         (None, 5, 64)             0         
                                                                 
 dense (Dense)               (None, 5, 100)            6500      
                                                                 
 dropout_2 (Dropout)         (None, 5, 100)            0         
                                                                 
 flatten (Flatten)           (None, 500)               0         
                                                                 
 dense_1 (Dense)             (None, 1)                 501       
                                                                 
=================================================================
Total params: 460,505
Trainable params: 460,377
Non-trainable params: 128
_________________________________________________________________

Epoch 1/200
train loss: 9574352.0
train mean_absolute_error: 1826.8533935546875
train lateness: 0.7678800225257874
train earliness: 0.033630628138780594
…
