…
customer_by_store_id']
--- Stacking for market_id done in 1255.013676404953 secs with final number of features: 26 ---
-------------------------------
New job directory is /home/alirachidi/doordash/prediction/cache/train_76/0
2022-08-30 17:58:21.600343: I tensorflow/core/platform/cpu_feature_guard.cc:151] This TensorFlow binary is optimized with oneAPI Deep Neural Network Library (oneDNN) to use the following CPU instructions in performance-critical operations:  AVX2 FMA
To enable them in other operations, rebuild TensorFlow with the appropriate compiler flags.
--- training dataset has shape: (143646, 5, 26) ---
--- validation dataset has shape: (35909, 5, 26) ---
Model: <class 'modules.models.RNN9.RNN9'>
Model: "sequential"
_________________________________________________________________
 Layer (type)                Output Shape              Param #   
=================================================================
 conv2d (Conv2D)             (None, 5, 26, 16)         64        
                                                                 
 conv2d_1 (Conv2D)           (None, 5, 26, 32)         1568      
                                                                 
 batch_normalization (BatchN  (None, 5, 26, 32)        128       
 ormalization)                                                   
                                                                 
 dropout (Dropout)           (None, 5, 26, 32)         0         
                                                                 
 reshape (Reshape)           (None, 5, 832)            0         
                                                                 
 bidirectional (Bidirectiona  (None, 5, 64)            221440    
 l)                                                              
                                                                 
 dropout_1 (Dropout)         (None, 5, 64)             0         
                                                                 
 dense (Dense)               (None, 5, 100)            6500      
                                                                 
 dropout_2 (Dropout)         (None, 5, 100)            0         
                                                                 
 flatten (Flatten)           (None, 500)               0         
                                                                 
 dense_1 (Dense)             (None, 1)                 501       
                                                                 
=================================================================
Total params: 230,201
Trainable params: 230,137
Non-trainable params: 64
_________________________________________________________________

Epoch 1/200
train loss: 10030069.0
train mean_absolute_error: 1878.731201171875
train lateness: 0.7912850975990295
train earliness: 0.026207396760582924
…
