…
customer_by_store_id']
--- Stacking for market_id done in 904.3558716773987 secs with final number of features: 26 ---
-------------------------------
New job directory is /home/alirachidi/doordash/prediction/cache/train_77/0
2022-08-30 19:31:12.409950: I tensorflow/core/platform/cpu_feature_guard.cc:151] This TensorFlow binary is optimized with oneAPI Deep Neural Network Library (oneDNN) to use the following CPU instructions in performance-critical operations:  AVX2 FMA
To enable them in other operations, rebuild TensorFlow with the appropriate compiler flags.
--- training dataset has shape: (143646, 3, 26) ---
--- validation dataset has shape: (35909, 3, 26) ---
Model: <class 'modules.models.RNN8.RNN8'>
Model: "sequential"
_________________________________________________________________
 Layer (type)                Output Shape              Param #   
=================================================================
 conv2d (Conv2D)             (None, 3, 26, 16)         160       
                                                                 
 conv2d_1 (Conv2D)           (None, 3, 26, 32)         4640      
                                                                 
 batch_normalization (BatchN  (None, 3, 26, 32)        128       
 ormalization)                                                   
                                                                 
 dropout (Dropout)           (None, 3, 26, 32)         0         
                                                                 
 reshape (Reshape)           (None, 3, 832)            0         
                                                                 
 bidirectional (Bidirectiona  (None, 3, 64)            221440    
 l)                                                              
                                                                 
 dropout_1 (Dropout)         (None, 3, 64)             0         
                                                                 
 dense (Dense)               (None, 3, 100)            6500      
                                                                 
 dropout_2 (Dropout)         (None, 3, 100)            0         
                                                                 
 flatten (Flatten)           (None, 300)               0         
                                                                 
 dense_1 (Dense)             (None, 1)                 301       
                                                                 
=================================================================
Total params: 233,169
Trainable params: 233,105
Non-trainable params: 64
_________________________________________________________________

Epoch 1/200
train loss: 12533108.0
train mean_absolute_error: 2172.810302734375
train lateness: 0.9065470695495605
train earliness: 0.0025611829478293657
…
