…
ubtotal_by_store_id']
--- Stacking for market_id done in 1042.2862102985382 secs with final number of features: 18 ---
-------------------------------
New job directory is /home/alirachidi/doordash/prediction/cache/train_79/0
2022-08-31 00:15:10.104318: I tensorflow/core/platform/cpu_feature_guard.cc:151] This TensorFlow binary is optimized with oneAPI Deep Neural Network Library (oneDNN) to use the following CPU instructions in performance-critical operations:  AVX2 FMA
To enable them in other operations, rebuild TensorFlow with the appropriate compiler flags.
--- training dataset has shape: (143646, 3, 18) ---
--- validation dataset has shape: (35909, 3, 18) ---
Model: <class 'modules.models.RNN8.RNN8'>
Loss: <function mean_squared_error at 0x7fc5397dbcb0>
loss weight: 1.0
Model: "sequential"
_________________________________________________________________
 Layer (type)                Output Shape              Param #   
=================================================================
 conv2d (Conv2D)             (None, 3, 18, 16)         160       
                                                                 
 conv2d_1 (Conv2D)           (None, 3, 18, 32)         4640      
                                                                 
 batch_normalization (BatchN  (None, 3, 18, 32)        128       
 ormalization)                                                   
                                                                 
 dropout (Dropout)           (None, 3, 18, 32)         0         
                                                                 
 reshape (Reshape)           (None, 3, 576)            0         
                                                                 
 bidirectional (Bidirectiona  (None, 3, 64)            155904    
 l)                                                              
                                                                 
 dropout_1 (Dropout)         (None, 3, 64)             0         
                                                                 
 dense (Dense)               (None, 3, 100)            6500      
                                                                 
 dropout_2 (Dropout)         (None, 3, 100)            0         
                                                                 
 flatten (Flatten)           (None, 300)               0         
                                                                 
 dense_1 (Dense)             (None, 1)                 301       
                                                                 
=================================================================
Total params: 167,633
Trainable params: 167,569
Non-trainable params: 64
_________________________________________________________________

Epoch 1/200
train loss: 6322703.0
train mean_absolute_error: 2184.21435546875
train lateness: 0.9111300706863403
train earliness: 0.0022151099983602762
…
--- Reading /home/alirachidi/doordash/data/historical_store_id_features_v4.csv...
--- 15 Decision features (stacking features could be added):
 ['market_id', 'store_id', 'subtotal', 'total_onshift_dashers', 'total_busy_dashers', 'total_outstanding_orders', 'estimated_store_to_consumer_driving_duration', 'week_day', 'weekend', 'day_of_month', 'month', 'hour', 'day_part', '24_hr_avg_time_by_market_id', '24_hr_avg_time_by_store_id']
--- Stacking for market_id done in 876.2676956653595 secs with final number of features: 16 ---
-------------------------------
New job directory is /home/alirachidi/doordash/prediction/cache/train_79/1
--- training dataset has shape: (143646, 3, 16) ---
--- validation dataset has shape: (35909, 3, 16) ---
Model: <class 'modules.models.RNN8.RNN8'>
Loss: <function mean_squared_error at 0x7fc5397dbcb0>
loss weight: 1.0
Model: "sequential_1"
_________________________________________________________________
 Layer (type)                Output Shape              Param #   
=================================================================
 conv2d_2 (Conv2D)           (None, 3, 16, 16)         160       
                                                                 
 conv2d_3 (Conv2D)           (None, 3, 16, 32)         4640      
                                                                 
 batch_normalization_1 (Batc  (None, 3, 16, 32)        128       
 hNormalization)                                                 
                                                                 
 dropout_3 (Dropout)         (None, 3, 16, 32)         0         
                                                                 
 reshape_1 (Reshape)         (None, 3, 512)            0         
                                                                 
 bidirectional_1 (Bidirectio  (None, 3, 64)            139520    
 nal)                                                            
                                                                 
 dropout_4 (Dropout)         (None, 3, 64)             0         
                                                                 
 dense_2 (Dense)             (None, 3, 100)            6500      
                                                                 
 dropout_5 (Dropout)         (None, 3, 100)            0         
                                                                 
 flatten_1 (Flatten)         (None, 300)               0         
                                                                 
 dense_3 (Dense)             (None, 1)                 301       
                                                                 
=================================================================
Total params: 151,249
Trainable params: 151,185
Non-trainable params: 64
_________________________________________________________________

Epoch 1/200
train loss: 6516728.5
train mean_absolute_error: 2232.058349609375
train lateness: 0.9231624007225037
train earliness: 0.0014743097126483917
…
