…
 ['market_id', 'store_id', 'subtotal', 'total_onshift_dashers', 'total_busy_dashers', 'total_outstanding_orders', 'estimated_store_to_consumer_driving_duration', 'week_day', 'weekend', 'day_of_month', 'month', 'hour', 'day_part', '1_hr_count_by_market_id']
--- Stacking for market_id done in 1040.20365524292 secs with final number of features: 15 ---
-------------------------------
New job directory is /home/alirachidi/doordash/prediction/cache/train_80/0
2022-08-31 00:23:34.839163: I tensorflow/core/platform/cpu_feature_guard.cc:151] This TensorFlow binary is optimized with oneAPI Deep Neural Network Library (oneDNN) to use the following CPU instructions in performance-critical operations:  AVX2 FMA
To enable them in other operations, rebuild TensorFlow with the appropriate compiler flags.
--- training dataset has shape: (143646, 3, 15) ---
--- validation dataset has shape: (35909, 3, 15) ---
Model: <class 'modules.models.RNN8.RNN8'>
Loss: <function mean_squared_error at 0x7f87a831fe60>
loss weight: 1.0
Model: "sequential"
_________________________________________________________________
 Layer (type)                Output Shape              Param #   
=================================================================
 conv2d (Conv2D)             (None, 3, 15, 16)         160       
                                                                 
 conv2d_1 (Conv2D)           (None, 3, 15, 32)         4640      
                                                                 
 batch_normalization (BatchN  (None, 3, 15, 32)        128       
 ormalization)                                                   
                                                                 
 dropout (Dropout)           (None, 3, 15, 32)         0         
                                                                 
 reshape (Reshape)           (None, 3, 480)            0         
                                                                 
 bidirectional (Bidirectiona  (None, 3, 64)            131328    
 l)                                                              
                                                                 
 dropout_1 (Dropout)         (None, 3, 64)             0         
                                                                 
 dense (Dense)               (None, 3, 100)            6500      
                                                                 
 dropout_2 (Dropout)         (None, 3, 100)            0         
                                                                 
 flatten (Flatten)           (None, 300)               0         
                                                                 
 dense_1 (Dense)             (None, 1)                 301       
                                                                 
=================================================================
Total params: 143,057
Trainable params: 142,993
Non-trainable params: 64
_________________________________________________________________

Epoch 1/200
train loss: 6288486.0
train mean_absolute_error: 2173.7802734375
train lateness: 0.9068291187286377
train earliness: 0.0025194792542606592
…
