…
customer_by_store_id']
--- Stacking for market_id done in 333.7784571647644 secs with final number of features: 25 ---
-------------------------------
New job directory is /home/alirachidi/doordash/prediction/cache/train_83/0
2022-08-31 15:00:26.374821: I tensorflow/core/platform/cpu_feature_guard.cc:151] This TensorFlow binary is optimized with oneAPI Deep Neural Network Library (oneDNN) to use the following CPU instructions in performance-critical operations:  AVX2 FMA
To enable them in other operations, rebuild TensorFlow with the appropriate compiler flags.
--- training dataset has shape: (143646, 1, 25) ---
--- validation dataset has shape: (35909, 1, 25) ---
Model: <class 'modules.models.RNN10.RNN10'>
Loss: <function mean_squared_error at 0x7fc96457a950>
loss weight: 1.0
Model: "sequential"
_________________________________________________________________
 Layer (type)                Output Shape              Param #
=================================================================
 conv2d (Conv2D)             (None, 1, 25, 16)         32

 conv2d_1 (Conv2D)           (None, 1, 25, 32)         544

 batch_normalization (BatchN  (None, 1, 25, 32)        128
 ormalization)

 dropout (Dropout)           (None, 1, 25, 32)         0

 reshape (Reshape)           (None, 1, 800)            0

 bidirectional (Bidirectiona  (None, 1, 64)            213248
 l)

 dropout_1 (Dropout)         (None, 1, 64)             0

 dense (Dense)               (None, 1, 100)            6500

 dropout_2 (Dropout)         (None, 1, 100)            0

 flatten (Flatten)           (None, 100)               0

 dense_1 (Dense)             (None, 1)                 101

=================================================================
Total params: 220,553
Trainable params: 220,489
Non-trainable params: 64
_________________________________________________________________

Epoch 1/200
train loss: 8579425.0
train mean_absolute_error: 2709.09375
train lateness: 0.9987657070159912
train earliness: 0.0
validation loss: 6021286.0
validation mean_absolute_error: 2246.16552734375
…
 ['market_id', 'store_id', 'subtotal', 'total_onshift_dashers', 'total_busy_dashers', 'total_outstanding_orders', 'estimated_store_to_consumer_driving_duration', 'week_day', 'weekend', 'day_of_month', 'month', 'hour', 'day_part', '1_hr_count_by_market_id', '1_hr_count_by_store_id', '1_hr_avg_subtotal_by_market_id', '1_hr_avg_subtotal_by_store_id', '24_hr_avg_time_by_market_id', '24_hr_avg_time_by_store_id', 'long_score_by_market_id', 'short_score_by_market_id', 'long_score_by_store_id', 'short_score_by_store_id', 'trip_to_customer_by_market_id', 'trip_to_customer_by_store_id']
--- Stacking for market_id done in 327.42705512046814 secs with final number of features: 25 ---
-------------------------------
New job directory is /home/alirachidi/doordash/prediction/cache/train_83/5
--- training dataset has shape: (143644, 1, 25) ---
--- validation dataset has shape: (35911, 1, 25) ---
Model: <class 'modules.models.RNN10.RNN10'>
Loss: <function mean_squared_error at 0x7fc96457a950>
loss weight: 1.0
Model: "sequential_5"
_________________________________________________________________
 Layer (type)                Output Shape              Param #   
=================================================================
 conv2d_10 (Conv2D)          (None, 1, 25, 16)         32        
                                                                 
 conv2d_11 (Conv2D)          (None, 1, 25, 32)         544       
                                                                 
 batch_normalization_5 (Batc  (None, 1, 25, 32)        128       
 hNormalization)                                                 
                                                                 
 dropout_15 (Dropout)        (None, 1, 25, 32)         0         
                                                                 
 reshape_5 (Reshape)         (None, 1, 800)            0         
                                                                 
 bidirectional_5 (Bidirectio  (None, 1, 64)            213248    
 nal)                                                            
                                                                 
 dropout_16 (Dropout)        (None, 1, 64)             0         
                                                                 
 dense_10 (Dense)            (None, 1, 100)            6500      
                                                                 
 dropout_17 (Dropout)        (None, 1, 100)            0         
                                                                 
 flatten_5 (Flatten)         (None, 100)               0         
                                                                 
 dense_11 (Dense)            (None, 1)                 101       
                                                                 
=================================================================
Total params: 220,553
Trainable params: 220,489
Non-trainable params: 64
_________________________________________________________________

Epoch 1/200
train loss: 8330690.0
train mean_absolute_error: 2672.61767578125
train lateness: 0.9986473321914673
train earliness: 0.0
…
