…
y_store_id']
Task: 2
--- Stacking for market_id done in 154.85893177986145 secs with final number of features: 23 ---
-------------------------------
New job directory is /home/alirachidi/doordash/prediction/cache/predict_6/0
2022-09-03 05:32:11.796514: I tensorflow/core/platform/cpu_feature_guard.cc:151] This TensorFlow binary is optimized with oneAPI Deep Neural Network Library (oneDNN) to use the following CPU instructions in performance-critical operations:  AVX2 FMA
To enable them in other operations, rebuild TensorFlow with the appropriate compiler flags.
--- training dataset has shape: (179555, 3, 23) ---
--- validation dataset has shape: (0,) ---
Model: <class 'modules.models.RNN8.RNN8'>
Loss: <function mean_squared_error at 0x7f566bb2bb00>
loss weight: 1.0
Model: "sequential"
_________________________________________________________________
 Layer (type)                Output Shape              Param #   
=================================================================
 conv2d (Conv2D)             (None, 3, 23, 16)         160       
                                                                 
 conv2d_1 (Conv2D)           (None, 3, 23, 32)         4640      
                                                                 
 batch_normalization (BatchN  (None, 3, 23, 32)        128       
 ormalization)                                                   
                                                                 
 dropout (Dropout)           (None, 3, 23, 32)         0         
                                                                 
 reshape (Reshape)           (None, 3, 736)            0         
                                                                 
 bidirectional (Bidirectiona  (None, 3, 64)            196864    
 l)                                                              
                                                                 
 dropout_1 (Dropout)         (None, 3, 64)             0         
                                                                 
 dense (Dense)               (None, 3, 100)            6500      
                                                                 
 dropout_2 (Dropout)         (None, 3, 100)            0         
                                                                 
 flatten (Flatten)           (None, 300)               0         
                                                                 
 dense_1 (Dense)             (None, 1)                 301       
                                                                 
=================================================================
Total params: 208,593
Trainable params: 208,529
Non-trainable params: 64
_________________________________________________________________

Epoch 0/200
train loss: 5141032.5
train mean_absolute_error: 1874.7900390625
train lateness: 0.7980769276618958
train earliness: 0.026144051924347878
…
