…
subtotal_by_store_id']
--- Stacking for market_id done in 157.712096452713 secs with final number of features: 17 ---
-------------------------------
New job directory is /home/alirachidi/doordash/prediction/cache/predict_5/0
2022-09-02 21:54:42.126057: I tensorflow/core/platform/cpu_feature_guard.cc:151] This TensorFlow binary is optimized with oneAPI Deep Neural Network Library (oneDNN) to use the following CPU instructions in performance-critical operations:  AVX2 FMA
To enable them in other operations, rebuild TensorFlow with the appropriate compiler flags.
--- training dataset has shape: (179555, 3, 17) ---
--- validation dataset has shape: (0,) ---
Model: <class 'modules.models.RNN8.RNN8'>
Loss: <function mean_squared_error at 0x7ff0037578c0>
loss weight: 1.0
Model: "sequential"
_________________________________________________________________
 Layer (type)                Output Shape              Param #   
=================================================================
 conv2d (Conv2D)             (None, 3, 17, 16)         160       
                                                                 
 conv2d_1 (Conv2D)           (None, 3, 17, 32)         4640      
                                                                 
 batch_normalization (BatchN  (None, 3, 17, 32)        128       
 ormalization)                                                   
                                                                 
 dropout (Dropout)           (None, 3, 17, 32)         0         
                                                                 
 reshape (Reshape)           (None, 3, 544)            0         
                                                                 
 bidirectional (Bidirectiona  (None, 3, 64)            147712    
 l)                                                              
                                                                 
 dropout_1 (Dropout)         (None, 3, 64)             0         
                                                                 
 dense (Dense)               (None, 3, 100)            6500      
                                                                 
 dropout_2 (Dropout)         (None, 3, 100)            0         
                                                                 
 flatten (Flatten)           (None, 300)               0         
                                                                 
 dense_1 (Dense)             (None, 1)                 301       
                                                                 
=================================================================
Total params: 159,441
Trainable params: 159,377
Non-trainable params: 64
_________________________________________________________________

Epoch 0/200
train loss: 5258722.5
train mean_absolute_error: 1908.4853515625
train lateness: 0.8144048452377319
train earliness: 0.02082325518131256
…
