…
stomer_by_store_id']
--- Stacking for market_id done in 195.78501725196838 secs with final number of features: 23 ---
-------------------------------
New job directory is /home/alirachidi/doordash/prediction/cache/predict_1/0
2022-09-01 22:23:19.945497: I tensorflow/core/platform/cpu_feature_guard.cc:151] This TensorFlow binary is optimized with oneAPI Deep Neural Network Library (oneDNN) to use the following CPU instructions in performance-critical operations:  AVX2 FMA
To enable them in other operations, rebuild TensorFlow with the appropriate compiler flags.
--- training dataset has shape: (179555, 3, 23) ---
--- validation dataset has shape: (0,) ---
Model: <class 'modules.models.RNN8.RNN8'>
Loss: <function mean_squared_error at 0x7f9091d5ba70>
loss weight: 1.0
Model: "sequential"
_________________________________________________________________
 Layer (type)                Output Shape              Param #   
=================================================================
 conv2d (Conv2D)             (None, 3, 23, 16)         160       
                                                                 
 conv2d_1 (Conv2D)           (None, 3, 23, 32)         4640      
                                                                 
 batch_normalization (BatchN  (None, 3, 23, 32)        128       
 ormalization)                                                   
                                                                 
 dropout (Dropout)           (None, 3, 23, 32)         0         
                                                                 
 reshape (Reshape)           (None, 3, 736)            0         
                                                                 
 bidirectional (Bidirectiona  (None, 3, 64)            196864    
 l)                                                              
                                                                 
 dropout_1 (Dropout)         (None, 3, 64)             0         
                                                                 
 dense (Dense)               (None, 3, 100)            6500      
                                                                 
 dropout_2 (Dropout)         (None, 3, 100)            0         
                                                                 
 flatten (Flatten)           (None, 300)               0         
                                                                 
 dense_1 (Dense)             (None, 1)                 301       
                                                                 
=================================================================
Total params: 208,593
Trainable params: 208,529
Non-trainable params: 64
_________________________________________________________________

Epoch 1/200
train loss: 5171676.5
train mean_absolute_error: 1884.0401611328125
train lateness: 0.8036487698554993
train earliness: 0.02415015734732151
…
