…
ubtotal_by_store_id']
--- Stacking for market_id done in 99.29141640663147 secs with final number of features: 17 ---
-------------------------------
New job directory is /home/alirachidi/doordash/prediction/cache/predict_4/0
2022-09-02 03:02:14.691220: I tensorflow/core/platform/cpu_feature_guard.cc:151] This TensorFlow binary is optimized with oneAPI Deep Neural Network Library (oneDNN) to use the following CPU instructions in performance-critical operations:  AVX2 FMA
To enable them in other operations, rebuild TensorFlow with the appropriate compiler flags.
--- training dataset has shape: (179555, 1, 17) ---
--- validation dataset has shape: (0,) ---
Model: <class 'modules.models.RNN8.RNN8'>
Loss: <function mean_squared_error at 0x7f6defd098c0>
loss weight: 1.0
Model: "sequential"
_________________________________________________________________
 Layer (type)                Output Shape              Param #
=================================================================
 conv2d (Conv2D)             (None, 1, 17, 16)         160

 conv2d_1 (Conv2D)           (None, 1, 17, 32)         4640

 batch_normalization (BatchN  (None, 1, 17, 32)        128
 ormalization)

 dropout (Dropout)           (None, 1, 17, 32)         0

 reshape (Reshape)           (None, 1, 544)            0

 bidirectional (Bidirectiona  (None, 1, 64)            147712
 l)

 dropout_1 (Dropout)         (None, 1, 64)             0

 dense (Dense)               (None, 1, 100)            6500

 dropout_2 (Dropout)         (None, 1, 100)            0

 flatten (Flatten)           (None, 100)               0

 dense_1 (Dense)             (None, 1)                 101

=================================================================
Total params: 159,241
Trainable params: 159,177
Non-trainable params: 64
_________________________________________________________________

Epoch 0/200
train loss: 7972598.5
train mean_absolute_error: 2598.859130859375
train lateness: 0.9959800839424133
train earliness: 5.5644586609560065e-06
Time taken for training epoch: 177.04s
…
