…
customer_by_store_id']
--- Stacking for market_id done in 689.2311444282532 secs with final number of features: 23 ---
-------------------------------
New job directory is /home/alirachidi/doordash/prediction/cache/train_85/0
2022-09-01 15:36:11.314302: I tensorflow/core/platform/cpu_feature_guard.cc:151] This TensorFlow binary is optimized with oneAPI Deep Neural Network Library (oneDNN) to use the following CPU instructions in performance-critical operations:  AVX2 FMA
To enable them in other operations, rebuild TensorFlow with the appropriate compiler flags.
--- training dataset has shape: (143646, 3, 23) ---
--- validation dataset has shape: (35909, 3, 23) ---
Model: <class 'modules.models.RNN8.RNN8'>
Loss: <function mean_squared_error at 0x7f95151d38c0>
loss weight: 1.0
Model: "sequential"
_________________________________________________________________
 Layer (type)                Output Shape              Param #   
=================================================================
 conv2d (Conv2D)             (None, 3, 23, 16)         160       
                                                                 
 conv2d_1 (Conv2D)           (None, 3, 23, 32)         4640      
                                                                 
 batch_normalization (BatchN  (None, 3, 23, 32)        128       
 ormalization)                                                   
                                                                 
 dropout (Dropout)           (None, 3, 23, 32)         0         
                                                                 
 reshape (Reshape)           (None, 3, 736)            0         
                                                                 
 bidirectional (Bidirectiona  (None, 3, 64)            196864    
 l)                                                              
                                                                 
 dropout_1 (Dropout)         (None, 3, 64)             0         
                                                                 
 dense (Dense)               (None, 3, 100)            6500      
                                                                 
 dropout_2 (Dropout)         (None, 3, 100)            0         
                                                                 
 flatten (Flatten)           (None, 300)               0         
                                                                 
 dense_1 (Dense)             (None, 1)                 301       
                                                                 
=================================================================
Total params: 208,593
Trainable params: 208,529
Non-trainable params: 64
_________________________________________________________________

Epoch 1/200
train loss: 6284409.5
train mean_absolute_error: 2173.281005859375
train lateness: 0.9070698618888855
train earliness: 0.0025194792542606592
…
--- 17 Decision features (stacking features could be added):
 ['market_id', 'store_id', 'subtotal', 'total_onshift_dashers', 'total_busy_dashers', 'total_outstanding_orders', 'estimated_store_to_consumer_driving_duration', 'week_day', 'weekend', 'day_of_month', 'month', 'hour', 'day_part', '1_hr_count_by_market_id', '1_hr_count_by_store_id', '1_hr_avg_subtotal_by_market_id', '1_hr_avg_subtotal_by_store_id']
--- Stacking for market_id done in 678.85174036026 secs with final number of features: 17 ---
-------------------------------
New job directory is /home/alirachidi/doordash/prediction/cache/train_85/5
--- training dataset has shape: (143646, 3, 17) ---
--- validation dataset has shape: (35909, 3, 17) ---
Model: <class 'modules.models.RNN8.RNN8'>
Loss: <function mean_squared_error at 0x7f95151d38c0>
loss weight: 1.0
Model: "sequential_5"
_________________________________________________________________
 Layer (type)                Output Shape              Param #   
=================================================================
 conv2d_10 (Conv2D)          (None, 3, 17, 16)         160       
                                                                 
 conv2d_11 (Conv2D)          (None, 3, 17, 32)         4640      
                                                                 
 batch_normalization_5 (Batc  (None, 3, 17, 32)        128       
 hNormalization)                                                 
                                                                 
 dropout_15 (Dropout)        (None, 3, 17, 32)         0         
                                                                 
 reshape_5 (Reshape)         (None, 3, 544)            0         
                                                                 
 bidirectional_5 (Bidirectio  (None, 3, 64)            147712    
 nal)                                                            
                                                                 
 dropout_16 (Dropout)        (None, 3, 64)             0         
                                                                 
 dense_10 (Dense)            (None, 3, 100)            6500      
                                                                 
 dropout_17 (Dropout)        (None, 3, 100)            0         
                                                                 
 flatten_5 (Flatten)         (None, 300)               0         
                                                                 
 dense_11 (Dense)            (None, 1)                 301       
                                                                 
=================================================================
Total params: 159,441
Trainable params: 159,377
Non-trainable params: 64
_________________________________________________________________

Epoch 1/200
train loss: 6526498.0
train mean_absolute_error: 2229.727294921875
train lateness: 0.9177706837654114
train earliness: 0.0017512167105451226
…
